rnn_model.pth (torch_old, 106507 bytes, 36 tensors)

weight f4 [11, 6]
000000 9e e9 93 3e 9e e7 01 3f b5 0b 05 3e fd d3 f1 3d
       0.28889173 0.50744045 0.12992747 0.11808012
000010 1e b0 b4 3e 0d 81 29 bf cd 64 5f 3f 91 15 9c bf
       0.35290617 -0.6621254 0.87263185 -1.2194082
000020 58 b7 7d 3f 85 5e 9d be b4 0c 84 3e 8b 9b a4 3f
       0.99107885 -0.30736175 0.25790942 1.2859968
000030 1d 8e 7a 3f 2e 85 fc 3f 75 2f 2d 40 57 4b ba be
       0.978731 1.9728143 2.7060215 -0.36385605
000040 d0 92 13 3e df 36 29 3e 5c 89 77 3f ca bc 9d 3f
       0.14411473 0.16524838 0.9669397 1.2323239
000050 3a b9 8c 3f 85 1d 83 bf de 1d cf bd aa 65 9d bf
       1.0994027 -1.0243384 -0.101131186 -1.229665
000060 60 65 bd bf ec 50 f4 3f 1f e4 68 3f 99 fc e8 3d
       -1.4796562 1.9087195 0.90973085 0.11376304
000070 01 9e 57 3e 95 8e c5 3f 31 bc 22 3f fa 94 0f bf
       0.21056367 1.5434138 0.6356841 -0.56086695
000080 ca 42 8d bf a4 4a 90 3f a8 e7 a3 be 23 bb e9 3f
       -1.1036007 1.1272779 -0.32012677 1.8260235
000090 2e 4e 5c be 39 16 20 3f d3 5f ae bd 33 87 f3 3f
       -0.21514198 0.6253391 -0.08514371 1.9025635
0000a0 cf 4d 98 3f 3e 7c d9 3d cd 35 b6 3f f2 64 0d bf
       1.1898745 0.106194004 1.4235169 -0.55232155
0000b0 ec bd ee bf 9c f3 d6 bf c1 48 71 be 3d f1 a3 3f
       -1.865171 -1.6793094 -0.2356291 1.2807995
0000c0 8b 02 17 bc 59 7a f4 be a1 aa 27 bf 8f 89 b6 bd
       -0.009216915 -0.47749594 -0.65494734 -0.08912956
0000d0 e6 ef c0 3f fa 1b 23 be ce 24 f5 3f f8 1f 03 bf
       1.5073211 -0.15928641 1.9151857 -0.51220655
0000e0 18 e9 18 40 5e b3 21 bf ee 82 c3 bf d0 21 bc 3f
       2.389227 -0.6316432 -1.5274332 1.4697819
0000f0 b4 89 aa 3f 96 64 3e bf c9 a4 92 bf 14 24 78 3f
       1.3323274 -0.7437223 -1.1456538 0.9693005
000100 6f f7 0e 3f 30 14 d1 bf
       0.55846304 -1.6334286

weight_ih_l0 f4 [33, 6]
000000 92 d2 ee bd 06 18 b2 bd be 9f d9 bd 46 35 1f 3e
       -0.11661257 -0.08695988 -0.106261715 0.15547666
000010 40 5d c3 bd 0c 1b 29 be 30 3b b6 3d c0 6c dd bc
       -0.095392704 -0.16514224 0.08898008 -0.027029395
000020 be d1 98 be e0 2d c5 3c e0 ac 60 3c 22 dc 10 3e
       -0.2984752 0.024069726 0.013713092 0.14146474
000030 c4 ef 0f 3e 78 ae 85 3e 90 48 21 3e 6e d8 28 be
       0.14056307 0.26109672 0.15750337 -0.16488811
000040 b0 ee 55 3d 00 35 92 be 00 3f 13 3d b0 25 0d bd
       0.052229583 -0.2855606 0.035948753 -0.03445977
000050 18 7c 7d 3e 85 d0 88 be 98 d2 b9 3d fc 01 92 be
       0.2475437 -0.26721588 0.09073371 -0.2851714
000060 2e cb d0 bd 66 17 d9 bd fc 93 98 3e db 44 12 be
       -0.101950034 -0.10600166 0.29800403 -0.14284079
000070 a2 c6 fd bd e4 02 cd bd 3a b1 10 be 40 cd 95 bd
       -0.12391402 -0.10010317 -0.14130107 -0.07314539
000080 0f 47 12 be 80 24 aa 3d da 15 94 be 27 8b 03 be
       -0.14284919 0.08307743 -0.2892292 -0.12846051
000090 ac 50 8d bd 61 52 0b be 02 a4 93 3e 9c 6b cb 3d
       -0.069001526 -0.13605644 0.28836066 0.09932634
0000a0 ca 0a 7c be bc 4b 8e bd ae ca 55 be d0 7c 96 3e
       -0.2461349 -0.06948039 -0.20878097 0.293921
0000b0 73 88 92 be dc 2a 3e 3e 5c aa 4a 3e f0 bf 80 3d
       -0.28619727 0.18571037 0.1979155 0.06286609
0000c0 ee c0 b4 bd 22 a6 19 3e 20 10 02 be 66 f2 45 be
       -0.08825861 0.15004781 -0.12701464 -0.19330749
0000d0 aa 17 a1 bd 01 89 54 be 70 f6 d8 3d b0 7d 52 3d
       -0.07865842 -0.20755388 0.10593879 0.051389396
0000e0 9c 15 69 3e be c6 51 be d0 8e db bc 78 0e 47 bd
       0.2276215 -0.2048597 -0.026801497 -0.048597783
0000f0 6c 95 0c be 9c 5b 4e 3e c8 4f f5 bd e0 e3 3f 3d
       -0.13728875 0.20152134 -0.11978108 0.046848178
000100 e0 c7 96 3c 03 d0 3d be 28 fc a3 3d df a1 89 be
       0.018405855 -0.18536381 0.08007079 -0.2688131
000110 f0 67 6e be 40 9f f0 bb 16 f6 39 be 7f 41 88 be
       -0.23281837 -0.007343203 -0.1816028 -0.2661247
000120 e8 93 08 bd dc d5 6b 3e a0 9b 97 3e ac e9 9b 3d
       -0.03334418 0.230308 0.2961092 0.07612929
000130 78 80 0e bd 3c 8a a9 bd 98 31 25 3d 76 0c 24 3e
       -0.034790486 -0.08278319 0.0403305 0.16020378
000140 60 43 56 3c e2 0f 8f 3e 0e 00 47 be d8 bd 1e 3e
       0.013077587 0.27941805 -0.19433615 0.15502107
000150 9c 32 bb 3d 80 a5 0e 3d 80 9a fc 3c 70 c7 a3 3d
       0.09140512 0.0348258 0.03083539 0.07997024
000160 48 17 53 bd 5c ca 47 3e 58 4c 4e 3e f4 2d 8f 3e
       -0.051535875 0.19510788 0.2014631 0.27964747
000170 26 f7 67 be 80 f0 ac 3c 3a 3f e6 bd 7c a1 f1 bd
       -0.22652873 0.021110773 -0.11242528 -0.11798379
000180 fd aa 8e be 20 21 1c 3c a6 83 48 3e 20 5f 37 3d
       -0.2786483 0.009529382 0.1958147 0.044768453
000190 5a de 64 be 00 0b 4b bd 98 e1 92 be 68 a3 f4 3d
       -0.22350445 -0.049571037 -0.2868774 0.1194523
0001a0 38 50 51 be 32 4a 99 bd 00 2e 8f bc f4 4d 8c be
       -0.20440757 -0.07484855 -0.01747799 -0.27403224
0001b0 1c e8 1a be 68 33 9f 3d 80 c6 07 3d 51 45 88 be
       -0.15127605 0.07773477 0.03314829 -0.26615384
0001c0 58 d4 48 bd fc 63 26 3e 28 1c 40 bd 00 d4 22 ba
       -0.04903063 0.16249079 -0.046901852 -0.00062114
0001d0 b2 6b 22 be 3a 15 4b 3e 0f f4 7a be ad 9a 60 be
       -0.15861395 0.19832316 -0.24507163 -0.21934004
0001e0 bf 7c 76 be 0a e6 3d 3e 0e 40 0c be 7c 78 65 be
       -0.24071024 0.18544784 -0.1369631 -0.22409242
0001f0 58 a9 0b bd 82 f5 29 3e 78 4e 85 be b6 ab 80 be
       -0.034097046 0.1659756 -0.2603643 -0.25131005
000200 90 4f cb bc 88 98 8a 3e 10 22 4b bd f6 1a 7a be
       -0.024818212 0.27069497 -0.04959303 -0.24424347
000210 c3 92 0b be ba fb 83 3e 9d 8f 77 be 1c a6 06 3e
       -0.13630204 0.2577799 -0.24175878 0.13149303
000220 0c 3c 95 3e cf 4f 07 be 78 89 22 3e a2 4c 8a 3e
       0.29147375 -0.13214038 0.15872753 0.2701159
000230 e0 fe 49 3e 52 72 80 be 18 26 3e 3d 28 a0 8c 3e
       0.19726133 -0.2508722 0.046423048 0.2746594
000240 33 c2 55 be 3c 2c ea 3d d1 38 96 be 32 47 d3 bd
       -0.20874862 0.11434218 -0.29340222 -0.10316314
000250 68 fb 48 bd 36 e8 0a 3e bc 65 7a be 4a a6 04 3e
       -0.049067885 0.13565144 -0.24452871 0.12954059
000260 04 ac 61 3e 66 3a 85 be 1f 1f 64 be 68 63 89 3e
       0.22038275 -0.26021117 -0.22277497 0.26833653
000270 b6 b7 bc bd 48 b8 a2 3d 00 42 56 3e 6e 2e 42 be
       -0.092147276 0.07945305 0.20923615 -0.18963024
000280 a0 53 f8 bc ae 96 b6 bd 39 25 92 be 16 32 9f bd
       -0.030313313 -0.089154586 -0.28544024 -0.07773225
000290 28 d4 31 bd 98 d0 87 3e 64 32 bd bd 4b d3 8f be
       -0.04341522 0.26526332 -0.09238127 -0.2809089
0002a0 00 f4 32 be 5a 93 1c 3e 70 51 86 3e 10 1f f2 3c
       -0.17475891 0.15290585 0.26234007 0.029555827
0002b0 f2 19 84 bd 55 75 84 be 6c df db 3d ba 02 ba bd
       -0.06450261 -0.25870767 0.10735974 -0.09082551
0002c0 e0 60 cd 3c e0 f7 0c 3e a8 42 45 3e 78 37 ba bd
       0.025070608 0.13766432 0.19263709 -0.09092611
0002d0 de 10 36 3e 78 fb 56 bd 2a 35 82 3e 18 64 6a 3e
       0.17779872 -0.052485913 0.25431186 0.22889745
0002e0 74 ce 57 bd e6 22 47 3e 8c a3 58 be 16 db 52 be
       -0.052687123 0.19446906 -0.21156138 -0.20591387
0002f0 34 fc 96 3e c6 53 e2 bd 00 bf 67 bb c6 63 fe bd
       0.2948929 -0.11051135 -0.0035361648 -0.12421374
000300 d8 3f dc bd b0 a0 c1 3d 68 55 4d 3d 30 7e 5f 3e
       -0.10754365 0.09454477 0.050130278 0.2182548
000310 7c db db 3d 9c ae e9 3d
       0.10735223 0.11410257

weight_hh_l0 f4 [33, 11]
000000 1a 28 84 3e b0 2b 29 bd 74 86 46 be 10 90 be bc
       0.25811845 -0.04130143 -0.19387227 -0.023262054
000010 98 40 77 3e 60 b1 7e bc c8 e4 6c 3e 4a cb 2d 3e
       0.24145734 -0.015545219 0.23134148 0.1697208
000020 06 dc 83 3e 88 b1 7b 3e 20 b8 3b 3e 74 9a e5 bd
       0.25753802 0.24579442 0.18331957 -0.112111
000030 42 02 47 be d0 ca 61 3e 3c 1c dc bd 4d b8 3b be
       -0.19434455 0.22050023 -0.10747573 -0.18332024
000040 54 d6 c3 3d 0e 93 97 be 96 b1 81 be e0 d5 59 bd
       0.09562364 -0.2960438 -0.253308 -0.053182483
000050 7c 78 8c 3e f0 cd 60 3d 98 eb d5 3d 98 41 2b bd
       0.27435672 0.054883897 0.104453266 -0.041810602
000060 e0 ca 1a 3c 72 0b 20 3e b0 6b 3c 3e 99 59 07 be
       0.009447783 0.15629366 0.18400455 -0.13217773
000070 b0 71 84 3d ac 74 64 3e 00 d6 14 3b 06 5f df bd
       0.06466997 0.22310132 0.0022710562 -0.10906796
000080 d7 27 86 be fa 4c 90 be 40 28 5e 3d d8 5a 77 bd
       -0.2620227 -0.28183728 0.054237604 -0.06038937
000090 80 80 ab 3d 00 22 53 bc 64 71 4c 3e 54 93 f9 bd
       0.08374119 -0.012886524 0.1996513 -0.12186304
0000a0 b8 df 81 3e 1a 43 aa bd 1c f1 83 3e 20 15 99 3d
       0.25365996 -0.0831358 0.2576989 0.074747324
0000b0 56 ff 24 3e f9 d5 0b be 2b a8 31 be 90 0a 86 bc
       0.16113028 -0.13655843 -0.17349307 -0.016362458
0000c0 2a 83 96 3e 10 d8 60 3e f4 d4 0a 3e ea 11 88 3e
       0.29396945 0.21957421 0.13557798 0.26576167
0000d0 23 fb 08 be a8 de 0f 3d d1 f7 8b be 0d 35 0c be
       -0.13377051 0.03512445 -0.27337506 -0.13692112
0000e0 05 58 8e be 34 75 57 3e 76 e6 45 3e cc 17 66 3e
       -0.2780153 0.21040803 0.19326195 0.22470015
0000f0 68 5e 44 3d 48 63 19 3d d4 07 ca 3d d0 91 0b 3e
       0.047941595 0.037448198 0.09864774 0.13629842
000100 b8 9b 41 bd a8 75 c2 bd c0 d1 59 3e 3d 96 2b be
       -0.047267646 -0.094950974 0.2127142 -0.1675653
000110 31 18 81 be 8c 1a a2 3d 95 6b 6e be f8 1c 32 3d
       -0.2521377 0.0791522 -0.23283227 0.043484658
000120 0d 4d 59 be e0 9b 48 3e b1 ca 0a be 56 10 84 3e
       -0.21220799 0.19590712 -0.13553883 0.25793713
000130 9e ef 93 bd 1e 85 42 be 06 3b 60 be 3c 11 2b 3e
       -0.07223438 -0.18996093 -0.21897516 0.16705793
000140 d0 48 7f 3d 18 f6 69 bd 31 54 1a be 72 94 d6 bd
       0.0623253 -0.05711946 -0.15071179 -0.104775324
000150 20 80 24 3d f8 72 da 3d 80 a0 d5 3c 98 9a 33 bd
       0.040161252 0.1066646 0.026077509 -0.043848604
000160 30 c0 98 3c 94 2c 4e 3e 38 85 38 3e e4 8c 66 3e
       0.01864633 0.20134193 0.18019569 0.22514683
000170 26 ff 83 3e 10 11 3f bd 2a a8 11 be 5a b4 26 3e
       0.257806 -0.04664713 -0.14224306 0.16279736
000180 dc f4 55 3e 60 64 af 3d 44 18 0d 3e 60 f9 4c bc
       0.20894188 0.08564067 0.13778788 -0.0125106275
000190 2f 3c 88 be 94 73 ca 3d 1c 2f 98 3e 00 6a 95 3d
       -0.26608416 0.09885326 0.29723442 0.072956085
0001a0 e4 39 74 bd 32 e2 44 3e 90 8e 14 bd 67 32 23 be
       -0.05962552 0.19226912 -0.03626877 -0.15937196
0001b0 18 33 7e 3d 98 a0 45 3d 2c 9d ad 3d 4a d6 23 3e
       0.062060446 0.048248857 0.08477244 0.15999714
0001c0 00 f2 92 ba a4 b3 ef 3d 04 7e 7d be 34 1f 7a 3e
       -0.0011211038 0.117041856 -0.24755102 0.24425966
0001d0 06 db 79 be 84 d7 8c bd 23 91 4b be 34 b9 10 3e
       -0.24399957 -0.06877044 -0.19879584 0.1413315
0001e0 90 cf 9f bc 16 08 93 be 2a 36 3c 3e 84 cd f3 3d
       -0.019508153 -0.28717107 0.18380037 0.11904433
0001f0 b0 de 77 bd c4 39 64 be 30 36 f6 3c 24 bf 48 be
       -0.060515106 -0.22287661 0.030055135 -0.19604164
000200 cc 93 6f 3e f5 47 99 be 44 01 cb bd be 3c fa bd
       0.23396224 -0.2993771 -0.09912351 -0.12218617
000210 e4 ac f4 3d 2c 49 55 3e a8 f9 28 3d 48 5c 88 3d
       0.11947039 0.20828694 0.041253716 0.06658226
000220 80 36 22 3b d4 a0 d7 3d 00 2a 3b 3a 20 83 b0 3d
       0.0024751723 0.105287224 0.00071397424 0.0861876
000230 42 96 0b 3e 2c 5e fc bd 3e 22 67 be 64 0c 42 be
       0.13631538 -0.12322649 -0.22571656 -0.18950039
000240 b6 4d 8d bd f0 ca 9a bc 41 69 1d be f4 94 8e 3e
       -0.06899588 -0.018895596 -0.15372182 0.27848017
000250 50 51 b4 bc 54 3c ba 3d 67 33 58 be 10 e1 97 3e
       -0.02201143 0.09093538 -0.21113358 0.29663897
000260 0c bc 9f bd 04 b4 80 3e 96 a1 84 3e bf 11 7a be
       -0.07799539 0.2513734 0.2590453 -0.24420832
000270 0c 56 03 be d2 70 2f 3e 6f f6 8c be 1d 51 04 be
       -0.12825793 0.17132881 -0.27531764 -0.12921567
000280 b9 45 0e be 56 58 53 be 29 54 6f be 40 a8 d2 3b
       -0.13893785 -0.20639166 -0.23371948 0.0064287484
000290 84 e5 a8 3d ee 3c 2a 3e 80 7b 86 bc b0 21 99 3d
       0.08246902 0.16624805 -0.016416311 0.074771285
0002a0 08 d9 07 3d 3c b9 a8 bd 42 d7 84 bd 1c 87 6a 3e
       0.03316596 -0.08238456 -0.0648637 0.22903103
0002b0 6a f1 83 bd 74 6f c3 3d 08 18 8d 3e 84 f3 d6 3d
       -0.064425305 0.09542742 0.27557397 0.10495666
0002c0 77 a8 12 be 4a 96 63 be 26 9a 69 be 50 8a a2 bc
       -0.14322077 -0.222253 -0.22812709 -0.019841343
0002d0 f2 1d 98 3e fe 47 a5 bd 66 47 33 3e 64 02 54 3e
       0.29710346 -0.08070372 0.17507705 0.20704037
0002e0 28 2e ba 3d d0 04 8b 3e c6 6b 20 3e 8c 5c c8 3d
       0.09090835 0.2715211 0.15666112 0.09783277
0002f0 95 2b 8f be 45 e1 84 be ce 2e 3f 3e 40 12 75 3e
       -0.27962938 -0.25953117 0.18670198 0.23932743
000300 60 e6 a9 3c 42 48 2f be c8 69 5f be 9c bc a7 3d
       0.020739734 -0.17117408 -0.21817696 0.08190271
000310 e4 8a 4d 3e b8 25 83 bd 30 01 a4 bd d0 8b 8b be
       0.20072514 -0.06403679 -0.08008039 -0.27255106
000320 50 5a b9 bd 90 0a 7e 3d 10 fa 6d be d2 f5 6b be
       -0.09050429 0.062021792 -0.23239923 -0.23042992
000330 48 7d e5 bd 04 c5 8d bd c4 71 64 3e e8 14 18 3e
       -0.11205536 -0.069223434 0.22309023 0.14851725
000340 de 76 03 be 56 fc 09 3e 20 02 7a 3c 78 27 2a 3e
       -0.12838313 0.13475165 0.015259296 0.16616619
000350 a0 ea 1b bd c6 a0 0e 3e 4e f6 39 3e 40 02 30 3c
       -0.038065553 0.13928518 0.18160364 0.010742724
000360 28 cc 6b be 38 1d 6c 3e ac 60 8a be 87 ac 33 be
       -0.23027098 0.23058021 -0.2702688 -0.17546283
000370 14 3a 7c be a0 d6 59 bc b8 9f af 3d ea b6 89 3e
       -0.2463153 -0.0132957995 0.08575386 0.26897365
000380 40 85 71 3e dd 9f 46 be 9a 64 99 be 83 7b 3c be
       0.23585987 -0.1939692 -0.29959565 -0.18406491
000390 54 e0 03 3e a4 81 98 3e 98 56 f9 3d 7e 8b b7 bd
       0.12878543 0.29786408 0.121747196 -0.08962153
0003a0 38 b7 02 be 34 f4 9e 3d 30 4a e1 3d 9a 39 d0 bd
       -0.12765205 0.07761422 0.11000478 -0.101672366
0003b0 80 2e 7b bb c6 e7 50 be e7 91 0e be ac dd 41 3e
       -0.0038327277 -0.20400915 -0.13922845 0.18932217
0003c0 34 91 88 be 60 52 34 3e 98 35 dc 3d 00 8c 6a 3d
       -0.2667328 0.17609549 0.1075241 0.05726242
0003d0 47 36 29 be b2 61 82 3e 7a 5d bb bd b0 00 07 3d
       -0.16524611 0.2546516 -0.091486886 0.03295964
0003e0 08 4c 2a bd aa 04 80 bd a4 8b cb bd e2 fd b0 bd
       -0.041576415 -0.062508896 -0.09938744 -0.08642174
0003f0 52 89 0b 3e 92 0f 72 be d2 5c 94 bd f0 1c 65 3d
       0.13626602 -0.23638752 -0.072442666 0.0559358

bias_ih_l0 f4 [33]
000000 20 dc 22 3c 9e fa 49 be 7e de 2a 3e 6c 7c 7f 3e
       0.009940177 -0.19724509 0.16686437 0.24949807
000010 70 6f 07 3e c6 f7 a6 bd 30 9c 54 3d 18 a4 24 3e
       0.13226104 -0.08152728 0.051906765 0.16078222
000020 e8 ac 6a 3e b4 01 55 3e ae c0 50 be d8 87 6a 3e
       0.22917521 0.20801431 -0.20386001 0.22903383
000030 80 41 29 3c 34 70 99 3d 30 74 38 3d b0 8f ac 3d
       0.010330558 0.07492104 0.04503268 0.08425844
000040 64 cd f2 bd 7c ab af 3d c2 e2 8f 3e e0 ab 83 bd
       -0.118555814 0.0857763 0.2810269 -0.06429267
000050 9b 20 08 be 9a 07 86 3e a0 c2 cf 3d 32 03 15 be
       -0.13293688 0.26177675 0.10144544 -0.14552
000060 40 32 aa 3c d4 5b 89 3e 74 b1 6b 3e 3d db 95 be
       0.020775914 0.26827872 0.23016912 -0.29268828
000070 60 9f 6d 3c 92 f0 4d be 90 ff 31 3e f8 3a 71 be
       0.01450333 -0.20111302 0.17382646 -0.23557651
000080 55 cc 2d be
       -0.16972478

bias_hh_l0 f4 [33]
000000 a8 94 95 bd ed 07 3b be a4 20 4d be f0 1d e5 3d
       -0.073037446 -0.18264742 -0.20031983 0.11187351
000010 5c 7e 35 be c0 34 b9 bd 80 45 02 bd 3e 91 3f 3e
       -0.17723984 -0.090432644 -0.03180456 0.18707749
000020 30 6a 41 3e d0 a1 1b 3d be e5 00 be 1a 63 d2 bd
       0.18888164 0.037996113 -0.1258764 -0.102728084
000030 fe 1a 12 3e d6 e7 e2 bd 5c a9 86 bd 6f af 6f be
       0.14268109 -0.110793754 -0.065752715 -0.23406766
000040 30 50 00 3d 24 71 57 bd 26 e5 6f be 20 eb 8f bc
       0.031326473 -0.052598134 -0.23427257 -0.017568171
000050 30 e6 c0 bc 94 51 5a 3e f8 f2 50 bd 70 e9 fb 3c
       -0.023547262 0.21320182 -0.051012963 0.03075096
000060 c2 81 7f be 00 1e c1 3a f0 66 87 3d ea 8c 13 3e
       -0.24951842 0.0014733672 0.06611431 0.14409223
000070 e0 c5 89 3c 64 9e b9 3d c0 40 90 3d 00 0b 93 bb
       0.016817987 0.09063414 0.070436 -0.0044873953
000080 e2 9e 03 3e
       0.12853578

weight_ih_l1 f4 [33, 11]
000000 9a f1 1b be 40 e7 ad 3b 28 5e c5 3d 4a d3 af bd
       -0.15228882 0.005307108 0.096370995 -0.08585222
000010 e0 f5 39 3c 60 b1 7c 3d 80 c3 48 be d0 e9 8f be
       0.011350125 0.061692595 -0.19605827 -0.28108072
000020 1a 28 3c 3e 06 ef 48 3e 00 00 6f 38 06 36 a0 bd
       0.18374673 0.1962243 5.698204e-05 -0.07822804
000030 b4 81 87 3d 60 74 55 3e 50 c5 be 3c 4a 62 41 3e
       0.06616536 0.20845175 0.023287445 0.1888515
000040 e0 53 d9 bd 00 e8 a1 b9 e0 08 d6 bc 34 b4 73 3e
       -0.10611701 -0.00030881166 -0.026127279 0.23799211
000050 00 63 3b 3b 92 6e 94 bd 48 18 26 3e c0 59 94 3e
       0.0028592944 -0.07247652 0.162202 0.28974724
000060 58 2f 2b 3e f6 8a 35 3e ca ca 23 be cc 60 bd 3d
       0.16717279 0.1772879 -0.15995327 0.09246978
000070 48 0c da 3d 78 80 dc 3d 76 f9 2e 3e d2 ac 1d 3e
       0.10646874 0.10766691 0.1708735 0.15397957
000080 58 90 52 3d c0 af b7 bd 90 97 60 3e 50 bb 5b be
       0.05140719 -0.089690685 0.21932817 -0.21458173
000090 a6 fa 96 bd 78 7e ca 3d 37 13 84 be c8 95 8a 3d
       -0.07372026 0.09887403 -0.2579591 0.0676685
0000a0 64 10 8e bd 98 c3 1f 3d f4 e8 fe 3d d2 1d f4 bd
       -0.0693672 0.039004892 0.12446776 -0.1191975
0000b0 b8 91 6f be 80 23 52 3e 70 63 cf 3d 00 09 0f 3c
       -0.23395431 0.20521355 0.10126388 0.008730173
0000c0 ba c8 6b be 2a 10 8b 3e 28 71 7c 3e a0 eb 8a bc
       -0.2302579 0.2716077 0.2465254 -0.016958058
0000d0 c0 04 7c 3e 40 48 e6 bd 39 b0 05 be 78 f1 84 bd
       0.24611187 -0.11244249 -0.13055505 -0.06491369
0000e0 8f ff 81 be 46 7a 90 3e 72 ed 96 3e 33 65 3c be
       -0.25390288 0.28218287 0.2947803 -0.1839798
0000f0 78 8b 61 3e 90 ab 80 be 58 98 85 3d c6 51 ae bd
       0.2202586 -0.25130892 0.06523198 -0.08511691
000100 12 ac 01 3e 30 fb 0f bd 49 3b 6a be 68 85 d1 3d
       0.12663296 -0.03515166 -0.22874178 0.10230523
000110 5d 50 98 be 06 4c f0 bd 00 8a 1a 3c d0 56 4f bd
       -0.29748812 -0.1173325 0.009432316 -0.0506199
000120 4e 9a 92 3e 20 38 5c 3c 18 93 80 3e a0 db 47 3c
       0.2863335 0.013441116 0.25112224 0.012198359
000130 2c 3d 54 bd 22 cf 99 3e 95 69 76 be 6e 53 68 be
       -0.05181615 0.30040842 -0.24063714 -0.22688076
000140 78 73 ba 3d 74 05 62 be 20 b2 10 3d 9c 95 91 3e
       0.09104055 -0.22072393 0.035326123 0.28434455
000150 13 f5 4e be 18 2a 57 3d 14 73 f7 bd bc d4 89 3e
       -0.20210676 0.052530378 -0.12082496 0.26920116
000160 40 67 b3 bc 88 9f 04 bd be c6 92 3e af 13 99 be
       -0.02189982 -0.032378703 0.28667253 -0.2989783
000170 f0 a8 6d be ca 8c 01 be 0c 93 e4 3d 24 b1 87 3e
       -0.23208976 -0.12651363 0.111608595 0.26502335
000180 88 da 83 be 2c 1c 6a 3e 33 74 2e be ca f3 39 3e
       -0.25752664 0.22862309 -0.17036514 0.18159404
000190 79 2d 22 be ac 26 71 3e b8 26 5a 3e ef fd 0c be
       -0.15837659 0.23549908 0.21303833 -0.13768743
0001a0 c8 91 39 bd a5 0b 7c be 8d 01 67 be 88 a6 62 3e
       -0.045305043 -0.24613817 -0.22559185 0.22133839
0001b0 50 3b 81 3e 52 7d 11 3e b4 ef b4 bd 74 d9 80 3d
       0.25240564 0.14207962 -0.08834782 0.06291476
0001c0 88 76 33 3d 56 2a 49 be 34 8b 89 be 20 47 cb bc
       0.043814212 -0.19645056 -0.26864016 -0.024814188
0001d0 b8 3b 7c be de 7e 7c be 1f 7f 83 be a0 e1 01 be
       -0.24632156 -0.24657771 -0.25682923 -0.12683725
0001e0 88 8c 6c 3e 96 59 77 be a0 7d 23 3d 0a 99 89 3e
       0.23100483 -0.24155268 0.039914727 0.26874572
0001f0 18 5a 56 3d d0 f2 73 3e 1c 5e 8f 3e ad 6e 57 be
       0.052332014 0.23823094 0.28001487 -0.21038313
000200 00 a9 16 bd 7a cd 4b be e0 37 21 3e b6 bc 12 3e
       -0.036782265 -0.19902602 0.15743971 0.143298
000210 78 dc 5b 3e 6e 14 d4 bd 09 ff 89 be 0c b1 55 3e
       0.21470821 -0.10355459 -0.2695239 0.2086832
000220 9c 0a fa 3d 80 dc fe 3d ce 4f 83 3e 88 9e 8b 3e
       0.12209055 0.12444401 0.25646824 0.27269387
000230 34 d3 4a 3e 14 81 fd bd f0 e2 8b bd 3c 9c f8 3d
       0.1980713 -0.12378135 -0.06830394 0.12139174
000240 a3 44 85 be 60 0b a7 bc 63 a4 94 be 80 33 2c 3e
       -0.26028928 -0.020391166 -0.29031667 0.1681652
000250 40 e0 ce bc f8 59 6f 3e d0 35 0e bd ea 0d 13 3e
       -0.025253415 0.23374164 -0.03471929 0.14360777
000260 ca 31 53 be 60 f0 f5 bc 01 b5 32 be 44 0f de 3d
       -0.20624462 -0.030021846 -0.1745186 0.108427554
000270 e8 f3 36 3d 58 96 e4 bd 46 00 3a 3e 00 ea 34 3a
       0.0446662 -0.11161488 0.18164167 0.0006901324
000280 74 b8 86 3e c8 bd 4a bd f8 de 98 bd 6c 52 58 3e
       0.26312602 -0.049497396 -0.07464403 0.21125191
000290 a0 4e f0 bd 6b 59 27 be 88 82 e6 3d 98 f3 29 bd
       -0.117337465 -0.16342704 0.112553656 -0.041492075
0002a0 50 4a 3b 3e 68 ed 49 be 04 e7 65 bd d0 25 20 bd
       0.18290067 -0.1971947 -0.056128517 -0.03909856
0002b0 ac 21 69 be 58 09 90 3e ec 1d 54 be b6 33 5c be
       -0.22766751 0.2813213 -0.2071454 -0.21504101
0002c0 92 54 77 be 4e f8 2b be c0 ab 96 3e c2 74 32 3e
       -0.24153355 -0.1679394 0.2942791 0.17427352
0002d0 2a b1 44 3e e0 c3 73 3d 9c 49 28 3e e6 5e b5 bd
       0.19208208 0.059512973 0.1643433 -0.08855991
0002e0 3e be 2a be 12 99 85 be 8c 06 42 be 53 ac 0a be
       -0.16674134 -0.26093346 -0.1894781 -0.13542299
0002f0 70 ef a4 bc ea 45 64 be c0 3e de 3d b8 e4 1e 3d
       -0.020133704 -0.22292295 0.10851812 0.038792342
000300 d8 a9 6a 3e f4 8c e4 3d 58 15 96 3e 08 19 b6 bd
       0.22916353 0.11159697 0.2931316 -0.08891493
000310 6c f4 af bd 40 66 54 bc 1e 33 3c 3e b2 23 2a 3e
       -0.08591542 -0.012963831 0.18378875 0.16615179
000320 81 75 78 be fa a4 1a 3e 80 3d 70 3e 10 56 71 3e
       -0.24263574 0.15101996 0.2346096 0.23567986
000330 90 68 27 bd 0f 23 72 be d0 87 d6 bc a6 78 88 3e
       -0.040871203 -0.23646186 -0.026187807 0.26654547
000340 48 5b 1d bd 8b 5e 6a be 0a b1 07 3e e0 59 5d bc
       -0.03841713 -0.22887628 0.13251129 -0.013510197
000350 16 1a c9 bd c7 2f 92 be 08 2b d4 3d 68 ab 5a be
       -0.098194286 -0.28552076 0.1035977 -0.21354449
000360 6e d0 9e bd 7e 87 69 be 50 a9 4b 3d 17 54 09 be
       -0.077545986 -0.22805592 0.049722016 -0.13410984
000370 8e af e6 bd 5c 07 01 3e 6a 18 cd bd f0 89 84 bd
       -0.11263953 0.12600464 -0.10014422 -0.06471622
000380 18 01 ac bd 95 09 64 be 1e 7b 5d be b0 a7 35 3e
       -0.08398646 -0.2226928 -0.21628997 0.17739749
000390 e0 ba 5d 3c f8 ac 98 3e fb 8f 77 be b2 6f f8 bd
       0.013533324 0.29819465 -0.24176018 -0.12130679
0003a0 10 03 fd 3d 96 9c 90 be 80 11 a3 3c 06 12 9c bd
       0.123541 -0.28244466 0.019905806 -0.07620625
0003b0 aa bf 95 3e 50 b5 34 3e e9 44 2f be d4 72 61 3e
       0.2924779 0.1764729 -0.17116131 0.2201646
0003c0 00 38 9a 3c 30 10 71 3d b6 68 13 3e 84 fa 59 3e
       0.018825531 0.05885333 0.14395413 0.2128697
0003d0 5a 5c 20 3e 40 19 24 bc be 60 8e be a6 02 47 be
       0.1566023 -0.010015786 -0.27808183 -0.19434604
0003e0 7d 11 1e be 41 fa 77 be b8 79 9c 3d 2e 61 a1 bd
       -0.15436359 -0.24216558 0.076404035 -0.07879864
0003f0 00 a6 95 be ba 2e 8d 3e 1a f5 8b 3e e8 4f 91 3e
       -0.2922821 0.27574712 0.27335435 0.28381276

weight_hh_l1 f4 [33, 11]
000000 d4 b4 d0 bd d0 43 42 3e b4 31 4c 3e 84 df 22 3e
       -0.1019074 0.18971181 0.19940835 0.15905577
000010 80 17 70 bb 40 fb 51 bc 9a 02 7e be bf cc 0b be
       -0.00366351 -0.01281625 -0.2480568 -0.13652323
000020 7a 41 80 3e 08 4e 3e 3e ee fd 79 be c0 33 be bb
       0.25049955 0.18584454 -0.24413273 -0.005804509
000030 a8 03 6d 3d b8 01 38 be 0e 3b 85 3e fc 60 70 3e
       0.057864815 -0.17969406 0.26021618 0.23474497
000040 48 27 80 be 66 7f 6e be 5b 88 04 be d0 01 99 bc
       -0.2502997 -0.23290786 -0.1294264 -0.018677622
000050 52 f4 ae bd 1c ef 71 3e 10 0d f1 3d 96 a8 9b bd
       -0.08542694 0.23626369 0.117700696 -0.076005146
000060 df 86 44 be 55 d3 44 be b0 51 45 3e e6 1d 4a 3e
       -0.19192074 -0.19221242 0.19269443 0.19737968
000070 c8 6c 1f 3e 30 59 b7 3d e2 b6 82 3e bc 0e 3d 3e
       0.1556884 0.08952558 0.25530154 0.18462652
000080 88 0b 80 be c0 9c cf bc a8 47 84 3e 4b 5c 2d be
       -0.25008798 -0.025343299 0.2583592 -0.16929738
000090 60 3f 71 3e c0 d9 ce 3c 68 c3 05 be f5 44 8d be
       0.23559332 0.025250316 -0.13062823 -0.27591673
0000a0 40 0f 4d 3e c0 73 84 3c 6c 31 b4 3d 5c f4 d1 3d
       0.20025349 0.016168475 0.08798489 0.10251686
0000b0 7c 7c 86 bd de ff 5d be e8 3f 1e bd 50 44 b5 3d
       -0.06566712 -0.21679637 -0.038635164 0.0885092
0000c0 7e de 67 be 46 9d 0c 3e 80 a3 59 3c e8 c5 8b 3e
       -0.22643468 0.1373187 0.01328361 0.27299428
0000d0 20 1b 2a bc f0 42 73 3e b8 b4 01 bd 80 b3 18 3e
       -0.010382444 0.23756003 -0.031666487 0.14912224
0000e0 06 86 2b 3e 28 c6 7d 3e a0 e7 0c 3c ec 34 68 3e
       0.16750345 0.24782622 0.008600146 0.22676438
0000f0 e6 1a 1d be fe ab 83 3e 8a ec 86 3e 57 5f 03 be
       -0.15342292 0.25717157 0.2635234 -0.12829338
000100 00 f7 22 3e 42 c1 64 be b2 e1 02 be 64 51 0a be
       0.15914536 -0.22339347 -0.12781408 -0.1350761
000110 18 65 9e 3d 9d 1c 64 be 38 4f 54 3d c1 d6 85 be
       0.07734126 -0.2227654 0.05183336 -0.26140407
000120 40 c3 4c 3e a0 7d 7f 3d a0 be 39 bc 10 02 71 be
       0.19996357 0.062375665 -0.011336952 -0.23535943
000130 c6 67 7b be 7c cf 9d bd c4 7f 95 3e a6 ae 76 be
       -0.24551305 -0.0770559 0.2919904 -0.2409006
000140 dc e1 3d be e9 22 8a be 18 a0 50 3d a4 b9 6b be
       -0.1854319 -0.2697976 0.050933927 -0.23020035
000150 42 c3 9d bd 3e 51 96 3e a0 2d 82 bc bc a9 d3 3d
       -0.07703258 0.29358858 -0.015890896 0.10335109
000160 d0 ea bf 3c a0 b2 44 3c a1 85 06 be 2e 9a 8e be
       0.023427397 0.012005478 -0.13136913 -0.27852005
000170 d0 3a 65 3d fe 0e 85 3e e2 cb 9b bd 00 aa c1 3b
       0.05596429 0.25988 -0.07607247 0.005910158
000180 e8 fc cf 3d 18 be 5c 3d bc cd f9 3d e0 27 4c 3d
       0.1015566 0.053892225 0.12197444 0.049842715
000190 e0 c4 20 3c 2a b6 58 be dc f9 97 be 9b be 84 be
       0.009812564 -0.2116324 -0.29682815 -0.2592667
0001a0 04 1c d8 3d 40 88 b4 bb 64 98 e3 3d d8 80 46 bd
       0.105522186 -0.0055094063 0.111130506 -0.04846272
0001b0 44 87 99 3e 33 01 53 be 18 57 cb 3d 74 17 6b 3e
       0.29986012 -0.20605926 0.09928721 0.22958165
0001c0 b4 eb c7 bd 12 95 b1 bd 22 c6 be bd d4 66 5c 3e
       -0.09761754 -0.08671011 -0.093151346 0.21523601
0001d0 30 b0 64 3e 74 16 2c 3e 2c 9d 58 3e 3a 7c 8a 3e
       0.22332835 0.1680544 0.21153706 0.27047902
0001e0 80 f5 86 bc ee 59 04 3e c4 2c 68 3e 0c 8a 75 be
       -0.016474485 0.1292493 0.22673327 -0.23978442
0001f0 e4 91 90 3d 1a 5f 2d be 7c 99 72 3e a0 7b 6d 3e
       0.070590764 -0.1693081 0.23691362 0.2319169
000200 40 2e 77 3e 60 48 bc 3d 90 51 14 3e 98 ce 57 be
       0.24138737 0.09193492 0.14484239 -0.21074903
000210 94 04 7e 3e e0 36 b8 bc 98 a6 de bd 60 9e 90 bc
       0.24806434 -0.022487104 -0.10871619 -0.017653644
000220 40 8f c2 3b a6 b0 53 be 20 1d 2f bc 0c 04 63 3e
       0.005937487 -0.20672855 -0.010688096 0.22169513
000230 a0 a0 f4 3d 52 09 0b be a8 63 5f bd b2 02 78 be
       0.11944699 -0.13577774 -0.0545384 -0.24219778
000240 7a ad 97 bd 00 d0 ab 3d c0 77 79 bc ec c8 dc 3d
       -0.07406135 0.08389282 -0.0152263045 0.1078051
000250 6e 1b 02 be 66 01 33 be 6e eb 96 3e 60 b4 f0 3c
       -0.12705776 -0.17481002 0.29476494 0.029382885
000260 4c 77 e1 3d 48 9f 29 3e 7c ad 5d 3e bc fb 89 3e
       0.11009082 0.16564667 0.2164821 0.2694987
000270 3a 46 d6 bd 20 ab 4b bd 4e 55 82 bd ae df 81 be
       -0.104626134 -0.049723744 -0.06363927 -0.25365967
000280 a0 3f 7a 3c 00 95 f1 bc 35 8e 13 be dc 95 c3 3d
       0.015273958 -0.029489994 -0.14409716 0.09550068
000290 80 d5 8e 3d 54 df ef bd 3a 34 9a 3e ec 1b 5e 3e
       0.06974316 -0.11712518 0.3011797 0.21690339
0002a0 2c f8 cb 3d 0c 5f 91 be 80 8d 54 be d0 67 b1 3c
       0.099594444 -0.28392828 -0.20757103 0.021655947
0002b0 16 72 7d be 64 5e ba 3d 30 f8 f3 bc 3a 13 86 be
       -0.24750552 0.09100035 -0.029781431 -0.26186544
0002c0 34 19 09 3e df 98 87 be ac f9 ca 3d 62 59 ad bd
       0.1338852 -0.2648382 0.099109024 -0.08464314
0002d0 0c 73 01 be de e6 45 be 1a f0 67 be 2c e2 76 bd
       -0.12641543 -0.1932635 -0.22650185 -0.060274288
0002e0 a0 3e 24 bc f0 89 f9 bc 6c 32 bd bd 52 66 83 3e
       -0.010024697 -0.030461282 -0.09238133 0.25664002
0002f0 40 b5 d8 3c f6 e1 4b be 6b 6d 99 be 34 1f 58 be
       0.026453614 -0.19910416 -0.29966292 -0.21105653
000300 fc 46 fc 3d e0 98 71 bd ea 70 0d 3e 91 e5 5d be
       0.12318227 -0.058983684 0.13812605 -0.21669604
000310 94 03 3c 3e 40 fa 39 3d a8 a0 0d be 78 fb 3e 3d
       0.1836074 0.045404673 -0.13830817 0.046626538
000320 48 3f 28 3d 5c 6f 47 be f2 3d 9a 3e 78 6e 52 3e
       0.041075975 -0.19476074 0.30125386 0.20549953
000330 6c 24 bd bd 48 a5 91 be 12 e3 1a 3e ff d1 8a be
       -0.092354625 -0.28446412 0.15125683 -0.2711334
000340 a0 25 4b 3c ae 09 ba bd 90 83 f7 3c a0 6a 12 3c
       0.012399107 -0.090838775 0.030214101 0.008936554
000350 9c a0 c7 bd 18 ce 8b 3d 84 f6 65 be 00 78 70 3c
       -0.09747431 0.06826419 -0.2245732 0.014677048
000360 2c df 41 3e 1f ce 7c be 5f 23 06 be 90 35 8c 3e
       0.1893279 -0.24688004 -0.1309943 0.27384615
000370 00 28 28 bb da ea fd bd 40 9c d8 3d 7a 1d 68 be
       -0.0025658607 -0.1239831 0.10576677 -0.22667494
000380 ce 9c 97 be 80 e4 b0 3b 88 e3 43 3d cf fa 8c be
       -0.2961182 0.005398333 0.047824413 -0.27535102
000390 fa 48 f5 bd 1e 10 4b be 32 07 20 be 2c 4e 57 3e
       -0.1197681 -0.19830367 -0.15627745 0.21025914
0003a0 72 5d ce bd 72 8c 13 be 24 34 6f 3e 00 66 63 bd
       -0.10076417 -0.14409044 0.23359734 -0.055517197
0003b0 a5 7f 06 be 08 9c 92 3e a6 b4 98 3e fb a5 13 be
       -0.1313463 0.28634667 0.29825324 -0.14418785
0003c0 8c 73 3b 3e ae 6f 3d 3e a0 8c 8f be a5 68 49 be
       0.18305796 0.18499634 -0.28036976 -0.19668825
0003d0 fc 9f c6 3d cc 90 d8 3d 98 e9 07 3d d4 0e f8 3d
       0.09698483 0.10574493 0.033181757 0.12112203
0003e0 f0 a7 7f bd a0 c1 99 bc c6 64 02 be 20 7c 55 3c
       -0.062416017 -0.018769085 -0.12733755 0.013030082
0003f0 80 06 1a bc 4c cf 71 be 7e b6 28 be 4a b2 52 be
       -0.009400964 -0.23614234 -0.16475865 -0.20575824

bias_ih_l1 f4 [33]
000000 64 f0 35 3e 24 73 dc bd 00 cf 96 bb cc ca b1 3d
       0.17767483 -0.10764149 -0.004602313 0.086812586
000010 b8 fb 2b bd 34 99 4b be 46 d0 fb bd f8 3a 99 3d
       -0.041988105 -0.19882661 -0.122955844 0.074819505
000020 84 d6 89 be 00 59 63 bc 1e 7a dc bd f5 38 81 be
       -0.26921475 -0.0138762 -0.107654795 -0.25238767
000030 c0 02 fe 3c 80 7e 34 bb a6 e2 48 3e 6e eb 51 be
       0.03100717 -0.002754122 0.1961771 -0.20499966
000040 b0 c8 d5 3c 64 4d 84 bd b0 dd 5d 3e e6 34 01 be
       0.026096672 -0.064600736 0.21666598 -0.12617835
000050 62 bb f6 bd ff 77 02 be 6a 3a 42 be e4 5e c1 bd
       -0.12047459 -0.12741087 -0.18967596 -0.09441927
000060 73 96 67 be 18 0b 2a 3e 94 f9 95 be 04 13 62 be
       -0.22615986 0.16605794 -0.29291975 -0.22077566
000070 d6 32 b3 bd 40 7c a4 3b d6 77 98 be 98 e0 f1 bd
       -0.087499306 0.0050196946 -0.29778928 -0.11810416
000080 84 3f 71 bd
       -0.058898464

bias_hh_l1 f4 [33]
000000 55 11 7f be c4 8d 61 bd e3 d2 64 be ed 75 0e be
       -0.24908955 -0.05506684 -0.22346072 -0.13912173
000010 98 10 5a 3e 9a f9 37 be 54 a8 00 3e 58 76 b5 bd
       0.21295393 -0.17966309 0.12564212 -0.08860463
000020 ce bb 1a 3e e0 f9 25 be e8 38 76 3e a8 c7 0e bd
       0.15110704 -0.16208601 0.24045146 -0.034858376
000030 ec ad b8 bd 70 89 8e 3e 4a d9 fd bd 24 35 68 3e
       -0.09017548 0.27839231 -0.1239496 0.22676522
000040 c8 86 4b bd 80 c3 8e 3e 70 24 67 3d 3e 80 89 be
       -0.049689084 0.2788353 0.056431234 -0.26855654
000050 a0 73 34 bc 2c b2 7b 3e 48 74 94 3e ac 46 38 3e
       -0.011013895 0.24579686 0.28994966 0.17995709
000060 f8 c9 8a 3e 9c 1e d6 3d ca 2b 2d be 95 a1 3a be
       0.27107215 0.10455057 -0.16911235 -0.18225701
000070 47 eb 0d be 8a 0d 8f 3e 10 ea 8c be 82 3e 84 bd
       -0.13859282 0.27940017 -0.27522326 -0.06457235
000080 c8 41 23 bd
       -0.039857656

weight_ih_l2 f4 [33, 11]
000000 20 82 4d 3c a8 34 60 3d 4e f3 97 be 8e c7 45 3e
       0.012543231 0.054737717 -0.29677814 0.19314405
000010 90 94 64 3e 68 3d 8e 3e a0 6f fc bd 6a a3 15 be
       0.22322297 0.27781224 -0.12325978 -0.14613119
000020 14 8b 30 3e 68 22 da 3d e0 64 ff 3c 87 3f 2c be
       0.17240554 0.10651094 0.03117603 -0.16821109
000030 7e 6e 35 3e 5e e6 9f bd c4 eb 27 3e ec 83 1d 3e
       0.1771793 -0.07807611 0.16398531 0.15382355
000040 70 6d 31 bd 30 50 3a 3e 7a 39 87 3e c0 c6 a2 3c
       -0.04331726 0.18194652 0.2641104 0.019870162
000050 b1 d2 96 be 4b 2d 99 be ac 1d f7 3d 74 d8 90 3e
       -0.2945762 -0.29917368 0.12066206 0.2829014
000060 98 e2 e3 3d e4 a1 ec 3d 56 ea 8b be c8 00 26 bd
       0.11127204 0.11554316 -0.27327222 -0.04052809
000070 3d d2 92 be d7 5e 93 be 84 8f 8c 3d 7c 88 ed 3d
       -0.28676024 -0.28783295 0.06863311 0.11598298
000080 0c 47 84 3d 83 75 30 be b0 78 ae bc ec 46 7f 3e
       0.064588636 -0.17232327 -0.021297783 0.24929398
000090 d0 f7 2a 3e 64 89 8b 3d dd f9 4a be d7 8b 41 be
       0.16696095 0.068133146 -0.19821878 -0.18901001
0000a0 98 57 28 3d 08 6a bb bd a0 4b 21 bd 4a e0 01 3e
       0.04109916 -0.09151083 -0.039378762 0.12683216
0000b0 7c b3 d0 3d 1f ba 8a be 04 4f 74 be fa 98 97 3e
       0.10190484 -0.27095124 -0.23858267 0.296089
0000c0 b2 35 12 be d8 b8 6a be 28 03 96 3d 18 ba 7b 3e
       -0.14278296 -0.22922075 0.07324821 0.24582708
0000d0 58 da 77 3e d0 1f 0d 3e b0 77 a7 bd 1c 8e b4 3d
       0.24204385 0.13781667 -0.081771255 0.08816168
0000e0 c0 e2 8b 3e 92 d2 0c 3e 1c 9b 14 3e b0 0f 56 3e
       0.27321434 0.13752201 0.14512295 0.20904422
0000f0 be a6 c3 bd 70 2b 4e be 78 f2 52 3d e0 af 85 3e
       -0.09553288 -0.20133758 0.051500767 0.26110744
000100 d0 e6 22 bd ce 7d 17 be 50 51 cd bc 00 65 90 3a
       -0.0397709 -0.14794084 -0.025063187 0.0011016428
000110 42 d6 98 bd 8a 7f c7 bd 03 01 88 be 26 7c 58 be
       -0.074627414 -0.09741123 -0.26563272 -0.21141109
000120 27 cb 98 be 5c 05 61 3e dc cf 81 3e 17 d5 29 be
       -0.29842493 0.219747 0.25353897 -0.16585194
000130 16 98 6f be a0 77 5f bd 98 b5 46 3e 3d f9 83 be
       -0.2339786 -0.054557443 0.1940521 -0.2577609
000140 d8 0c 96 be 08 0d 89 3e 90 e4 29 3e 40 85 e5 bb
       -0.29306674 0.26767755 0.16591096 -0.00700441
000150 b0 80 1c bd 10 f2 f5 bc 3c ee d5 3d 6e 4f f0 bd
       -0.038208663 -0.030022651 0.1044583 -0.117339
000160 c0 35 18 3d 08 00 47 bd 30 bf 78 be 32 97 72 be
       0.037160635 -0.048584014 -0.24291682 -0.23690489
000170 dc 4e 10 3e f0 a1 98 3e d6 73 92 3e be 6d 2f 3e
       0.14092582 0.29811049 0.28604 0.17131707
000180 82 8e 8b be 12 8c 98 3e 42 09 29 be d4 95 c6 3d
       -0.27257162 0.29794365 -0.16507438 0.09696546
000190 28 d2 48 3e d5 dc 0b be de 42 13 be 50 0a 78 3e
       0.19611418 -0.1365846 -0.14380977 0.24222684
0001a0 12 87 3f be 98 87 34 be 5a 08 84 be 87 fe 12 be
       -0.18703869 -0.1762985 -0.25787622 -0.14354907
0001b0 7a 61 8a be c5 17 09 be 08 4c 5b 3d ee fe 74 be
       -0.27027494 -0.13387974 0.053539306 -0.23925373
0001c0 de 37 58 be 00 cd b1 bb 08 f5 3c 3e fe 72 8d 3e
       -0.21115062 -0.005426049 0.18452847 0.27626795
0001d0 64 84 8a 3d 7c 06 96 3e 60 fa 7c 3c d8 da 59 be
       0.06763533 0.29301822 0.015440553 -0.21274889
0001e0 d8 a8 6d bd f0 3c 7e 3e 49 c1 8d be aa 59 80 3e
       -0.05802235 0.24827933 -0.27686527 0.25068408
0001f0 40 6c ed bb f2 e8 57 be 96 b6 8f 3e fc dd 82 3d
       -0.0072455704 -0.21084955 0.2806899 0.063899964
000200 2d b4 02 be 50 a0 57 3e 38 4c 43 be 20 65 98 3e
       -0.12764044 0.21057248 -0.19072044 0.29764652
000210 11 d8 41 be 0a 69 34 3e 54 2f 6c 3e 00 d1 24 3b
       -0.18930079 0.17618194 0.23064929 0.0025148988
000220 d0 e8 88 bc f8 89 b9 bd 5d 72 8d be 90 d2 3b 3e
       -0.016712576 -0.090595186 -0.27626315 0.18342042
000230 e0 90 14 3d d8 88 2b 3d 1e f3 a6 bd 40 35 81 be
       0.036270976 0.04187855 -0.0815184 -0.2523594
000240 00 cd 25 3b c8 14 b3 3d 32 45 55 be 04 18 6a be
       0.0025299191 0.08744198 -0.20827177 -0.22860724
000250 e8 f0 78 be 06 47 cf bd f8 ac f4 bd 9a b0 11 3e
       -0.24310648 -0.101209685 -0.11947054 0.14227524
000260 bc 1a 10 3e 4a 26 97 be 3e 05 7e be 12 63 84 be
       0.14072698 -0.295214 -0.24806687 -0.25856835
000270 98 20 af 3d b8 6a 87 3e 30 31 66 bd 78 9d 4e 3e
       0.08551139 0.26448607 -0.056199253 0.20177257
000280 c8 61 08 3e 60 c8 0b be 9e 63 33 3e 66 36 0c be
       0.1331855 -0.13650656 0.1751847 -0.13692626
000290 52 4c 84 3e 1e 93 2f 3e 5f e4 88 be 20 58 63 3e
       0.25839478 0.17145965 -0.26736733 0.22201586
0002a0 f9 50 4c be 3a 0a 91 3e c8 14 6a bd bd 82 41 be
       -0.19952764 0.28328115 -0.057148725 -0.18897529
0002b0 a0 6c c3 3d 40 10 83 3c b0 8e 37 bd 42 a5 45 3e
       0.09542203 0.01599896 -0.04481381 0.19301322
0002c0 00 d2 cf bc d8 dd 86 be e8 8d 56 3e 50 02 56 3d
       -0.02536869 -0.26341128 0.2095257 0.0522483
0002d0 70 95 ec 3c 30 0b 54 3d 98 27 8e bd 3b 9f 24 be
       0.028879851 0.05176848 -0.06941146 -0.16076367
0002e0 33 26 0a be 52 79 b3 bd 20 91 0a 3d b2 f9 37 be
       -0.13491134 -0.087633744 0.03382981 -0.17966345
0002f0 8e 53 04 be b3 31 00 be ca db 93 be dc d4 70 3e
       -0.12922499 -0.12518959 -0.28878623 0.235187
000300 b2 72 33 3e 27 be 3b be dc 3e d0 bd 75 0c 95 be
       0.17524222 -0.18334256 -0.101682395 -0.29111066
000310 70 e5 c0 bc de d1 7b be 7c 45 fb bd 7c 2f ec bd
       -0.023546904 -0.24591777 -0.122691125 -0.115324944
000320 9f ed 7e be ec 20 45 3e 64 9d 4a 3e c2 1b c7 bd
       -0.24895333 0.1925084 0.19786602 -0.09722091
000330 af f7 84 be 28 f1 44 3d a1 5f 86 be cc cd 5a bd
       -0.25970218 0.048081547 -0.26244834 -0.05341892
000340 f0 e8 5a 3e 00 18 01 be 16 9e b5 bd f0 60 08 3e
       0.21377921 -0.12606812 -0.08868043 0.13318229
000350 4e 13 92 bd 00 30 d1 3d af ae 17 be f4 ef c2 3d
       -0.07132588 0.102142334 -0.1481273 0.09518424
000360 9c 13 1a 3e 18 b3 1c 3e 88 ab 1d 3e 15 50 01 be
       0.15046543 0.15302694 0.15397465 -0.12628205
000370 ae 9b 1c be 9c 81 05 3e 86 22 8a 3e 90 f1 40 3d
       -0.15293762 0.13037723 0.26979464 0.047105372
000380 05 8a 70 be ec 5d 83 3d 4d 9a 32 be c8 22 1c bd
       -0.2349015 0.064143986 -0.17441674 -0.038119107
000390 80 28 a5 bd e8 8b 5e be fd 6b 05 be b0 69 9e 3d
       -0.080643654 -0.21733057 -0.13029476 0.07735002
0003a0 2e 17 a1 bd 9a bd 18 be 60 39 43 bd e7 b8 98 be
       -0.07865749 -0.14916077 -0.04766214 -0.2982857
0003b0 ec a8 dc bd 4a 82 8c 3e 8a 40 b3 bd 4c 4f 74 3e
       -0.10774407 0.27443153 -0.08752544 0.23858374
0003c0 a0 7a 8a 3e ac 98 72 bd 45 c8 85 be 54 f8 80 3d
       0.2704668 -0.05922763 -0.26129356 0.06297365
0003d0 24 cc 75 bd 38 1b 8f 3e 60 83 27 bc 74 42 b8 bd
       -0.060009137 0.27950454 -0.010224193 -0.0899705
0003e0 4e 88 81 3e 40 54 0b bd d4 e5 62 bd 85 75 8f be
       0.25299305 -0.034015894 -0.055394962 -0.28019348
0003f0 00 e7 a9 bc b8 fe 0a be 92 8d 65 be 8c d5 3a be
       -0.020740032 -0.1357373 -0.22417286 -0.18245524

weight_hh_l2 f4 [33, 11]
000000 ce de 09 3e 3b 0a 95 be d9 a9 99 be d9 b5 30 be
       0.134639 -0.29109368 -0.30012396 -0.1725687
000010 80 63 93 3d 1c 0a 69 be 3f df 85 be 93 f1 95 be
       0.071967125 -0.22757763 -0.26146886 -0.2928587
000020 dc 3c 72 3e 1e 35 3f 3e 28 4d 9a be fa 24 8b be
       0.23656029 0.18672606 -0.3013699 -0.27176648
000030 48 e9 de bd 70 85 14 3e 9c ab 63 3e e0 d9 54 be
       -0.108843386 0.14504027 0.22233433 -0.20786238
000040 78 cb 79 3e 08 62 17 3d 68 9b 69 3d b0 b8 a6 3c
       0.24394023 0.036958724 0.057032973 0.020351738
000050 00 ea 4e 3d bf 3c 84 be e4 89 e8 3d 98 d6 bd 3d
       0.05051613 -0.25827596 0.113544255 0.09269446
000060 05 c1 1c be 74 49 8b 3e 60 26 9b bd 58 f5 ae bd
       -0.15308006 0.27204478 -0.07575679 -0.08542889
000070 46 b1 1b 3e 0c 33 5d 3e d4 03 6c 3e fe 27 fb bd
       0.15204343 0.21601504 0.23048335 -0.12263487
000080 1d 19 0b be f4 36 b8 bd 10 8d 68 3d a0 1a 5b be
       -0.13583799 -0.089948565 0.056775153 -0.21396875
000090 60 d1 32 3e 62 cf 19 3e f0 42 64 3e 9c 35 90 3e
       0.17462683 0.15020517 0.2229116 0.281659
0000a0 8a 3b 69 be 66 74 42 be c4 2b d9 3d 66 1f a3 bd
       -0.22776619 -0.18989715 0.10604051 -0.07964973
0000b0 40 13 52 3d 1c b5 31 3e 86 af 12 be 30 08 a3 3d
       0.05128789 0.17354244 -0.1432477 0.07960546
0000c0 ac 30 25 3e ee 7b d4 bd 40 cf 71 be 90 fb 4d 3e
       0.16131848 -0.103752 -0.23614216 0.20115495
0000d0 6d 27 02 be d4 3f 75 3e a6 d3 af bd 66 20 2d be
       -0.12710352 0.2395013 -0.085852906 -0.1690689
0000e0 2d 54 8d be e0 e3 86 3e b8 da 23 be 20 8a 20 bc
       -0.27603284 0.2634573 -0.16001403 -0.009798557
0000f0 d4 ff 96 bd 88 f5 8e be 44 f9 7f 3e 28 90 8d bd
       -0.07373014 -0.279217 0.24997431 -0.06912261
000100 24 22 37 3e 13 e8 02 be 90 0c c2 3d 7e 0a 0c 3e
       0.17884117 -0.12783842 0.09475052 0.13675877
000110 30 61 97 bc 38 8c 92 3e c8 b9 f2 3d 68 74 85 be
       -0.01847896 0.28622603 0.11851841 -0.26065373
000120 0d 80 5c be 00 0a 15 bb e0 41 34 bc 40 f0 04 bd
       -0.21533222 -0.0022741556 -0.011002034 -0.032455683
000130 a8 39 b2 bd 28 22 82 3e 40 b7 b7 3b e4 bc 1a 3e
       -0.08702403 0.25416684 0.005606562 0.15111119
000140 d2 02 ec bd 40 a4 f0 3d 28 fa 41 be 76 97 69 be
       -0.115239754 0.11750078 -0.18943083 -0.22811684
000150 e4 b7 fc bd 06 f0 6a be c2 7b ca bd 24 b7 a6 bd
       -0.12339762 -0.22943124 -0.09886886 -0.081404
000160 ac 1d 6c 3e 12 87 46 3e 88 a6 60 be 40 23 95 3d
       0.23058194 0.19387463 -0.21938527 0.07282114
000170 1c ed 65 be d4 57 84 bd c0 06 56 3c 5c 22 d3 bd
       -0.22453731 -0.064620644 0.013063133 -0.10309288
000180 f1 83 0c be 7c 3a 1a 3e 6c b0 bd bd f2 00 7d be
       -0.13722207 0.15061373 -0.092621654 -0.24707392
000190 24 42 74 bd 50 c7 c5 bc 60 41 2b bc d6 b0 f6 bd
       -0.05963339 -0.024142891 -0.010452598 -0.120454475
0001a0 80 fe 2b 3d 6a 22 0b 3e cc e2 95 3e 50 af bd 3d
       0.041990757 0.13587347 0.29274595 0.09261954
0001b0 24 7d 0e 3e 06 e2 8f 3e c6 33 3a 3e 8a 44 1a be
       0.13914925 0.2810213 0.18183812 -0.15065208
0001c0 bc 65 96 3e a0 24 04 3c 48 af 13 be f8 ef 3a 3d
       0.29374492 0.008065373 -0.14422333 0.04563901
0001d0 db 39 85 be 90 2a 15 3d 70 11 62 bd 30 47 a1 3d
       -0.26020703 0.036417544 -0.05519241 0.07874906
0001e0 f8 d1 f0 bd 1c 8f 46 3e e2 80 b9 bd b8 c5 01 3e
       -0.11758798 0.1939053 -0.090577856 0.1267308
0001f0 86 d7 2e 3e 30 9f 6c 3e b2 5e 3c 3e a2 52 86 bd
       0.17074403 0.231076 0.18395498 -0.0655873
000200 45 3d 03 be a0 7f 56 be 30 1c ce bd 5a c6 02 be
       -0.12816341 -0.20947123 -0.1006397 -0.12770978
000210 60 57 5c 3d 2d 18 90 be 28 2e ac 3d de 51 91 be
       0.053794265 -0.28143445 0.08407241 -0.28382772
000220 90 35 f4 3c c4 6d d8 3d 2e d4 28 3e 04 f6 c8 3d
       0.029810697 0.10567811 0.1648719 0.09812549
000230 5c 8c 72 3e 96 df 90 3e 4a 16 18 3e 7c 57 bf 3d
       0.23686355 0.28295583 0.14852253 0.09342858
000240 00 2f a2 bc 5c b6 23 be 00 24 60 3b b8 ab 63 3e
       -0.019797802 -0.15987533 0.0034201145 0.22233474
000250 4a 9e f5 bd 03 db 99 be d8 ec 5f bd 60 e7 05 3c
       -0.11993082 -0.30049905 -0.05466923 0.00817284
000260 90 df 90 3e ac 7d 62 3e 80 ec 96 3c 00 b2 b8 3b
       0.28295565 0.22118253 0.018423319 0.0056364536
000270 28 18 95 be a8 c4 69 3e ea c7 bc bd d8 95 93 3d
       -0.29119992 0.22828925 -0.09217818 0.07206315
000280 fc b6 39 3e 50 99 7a 3e 5c 38 2f 3e e6 86 2b 3e
       0.18136209 0.24472547 0.17111343 0.16750678
000290 d4 5d ca 3d e8 64 5b 3d c0 08 e6 3d 10 32 28 be
       0.098811775 0.05356303 0.11232138 -0.16425347
0002a0 b4 f7 75 3e 00 7f 98 bc 9e 54 58 be 82 e1 33 be
       0.24020272 -0.018615246 -0.21126029 -0.17566493
0002b0 9d 2c 8f be d4 a9 6b be fa b7 5e be d5 ba 4c be
       -0.27963725 -0.23014003 -0.21749869 -0.19993146
0002c0 e0 d7 50 bc 0e 5f 92 bd 6e 26 81 be 46 2d 95 3e
       -0.012746781 -0.071470365 -0.25224632 0.29136103
0002d0 9a f6 11 be 46 65 93 3e cc 73 e3 bd 4c e0 6c bd
       -0.14254227 0.28788203 -0.11106071 -0.057831094
0002e0 10 39 6a 3d a0 12 a5 bd 40 c7 85 bb fc 56 99 be
       0.057183325 -0.08060193 -0.0040825903 -0.29949176
0002f0 31 6a 8e be c0 46 3a bc 70 f8 57 3d 78 19 35 3d
       -0.27815393 -0.011369407 0.052727163 0.044213742
000300 54 e6 1f be a8 d3 a6 3d 20 f2 aa 3c ae d7 19 3e
       -0.15615207 0.08145839 0.020867407 0.15023682
000310 64 43 52 3e b8 81 05 bd ba b7 2c be 38 75 37 be
       0.2053352 -0.032594413 -0.16866961 -0.17915809
000320 b6 b2 42 be 50 48 00 bd 46 2b 94 be f4 e7 f5 3d
       -0.19013485 -0.031318963 -0.28939265 0.12007132
000330 9c e4 7e 3e 20 c6 58 3c 80 74 1a 3c f4 27 71 3e
       0.24891895 0.01323083 0.00942719 0.23550397
000340 20 81 14 bd ac a2 94 3e 90 dc 86 3e dd d3 62 be
       -0.036255956 0.2903036 0.2634015 -0.22151132
000350 d3 11 99 be 58 9c 24 3e 4c 6e 8e 3e 86 3f 3a 3e
       -0.2989641 0.16075265 0.27818525 0.18188295
000360 d4 83 57 bd 28 05 ce 3d 64 ef 10 3e 2c 64 ed bd
       -0.052615955 0.10059577 0.1415382 -0.11591372
000370 9e 2c 61 be 84 5b d7 bd 08 d1 65 3e da ba bb bd
       -0.21989676 -0.10515502 0.2244302 -0.091664985
000380 18 6a 9b 3d 92 87 41 3e 80 4a 3a 3d 08 28 95 3d
       0.07588595 0.18899372 0.045481205 0.07283026
000390 c0 85 d6 3d 42 72 d3 bd 12 46 8e 3e 1a f8 0c be
       0.104747295 -0.10324527 0.27787834 -0.13766518
0003a0 0c 42 bd bd 00 08 3b be 5c 60 2b be 03 26 36 be
       -0.09241113 -0.1826477 -0.16735977 -0.17787938
0003b0 39 94 8e be 28 7c ba bd f2 03 93 3e 6c 81 3e 3e
       -0.2784746 -0.09105712 0.28713948 0.18604058
0003c0 a4 99 40 be 14 33 6d 3e cc bc 31 3e 60 30 be 3c
       -0.18808609 0.23164016 0.17357177 0.023216426
0003d0 3f 1c 64 be 60 54 de 3c 28 a3 50 3e 20 c2 3a bd
       -0.222764 0.027139843 0.20374739 -0.04559529
0003e0 c4 48 4d 3e c6 c3 90 be c0 9e 93 3e 64 fe 6d bd
       0.20047289 -0.28274363 0.28832054 -0.058103934
0003f0 b4 3c 39 3e 10 5a 56 3e 35 c9 98 be a4 73 46 3e
       0.18089563 0.20932794 -0.2984101 0.19380051

bias_ih_l2 f4 [33]
000000 48 74 70 be b1 f1 07 be 90 be d3 3c c0 2d 94 bc
       -0.23481858 -0.13275792 0.025847703 -0.018088222
000010 d0 9c eb bc f4 07 59 3e 64 49 d1 3d a0 89 fa 3d
       -0.028761297 0.2119444 0.10219076 0.12233281
000020 90 eb 8d 3e 34 1d 54 be c2 99 b7 bd d0 c8 92 be
       0.27718782 -0.20714265 -0.08964874 -0.28668833
000030 70 b1 8c be 8c 52 88 3d 31 3f 59 be 77 6a 11 be
       -0.27479124 0.066563696 -0.21215512 -0.1420077
000040 98 3e c4 bd 40 a5 37 3c fc d5 34 3e b0 49 3c bd
       -0.09582251 0.011208832 0.17659754 -0.04596871
000050 3a 23 86 3e ac 82 08 be 00 52 fe bc da cd c5 bd
       0.2619875 -0.13331097 -0.03104496 -0.09658404
000060 54 63 38 3e dd 54 8e be a8 38 d6 3d 44 0e 84 3e
       0.1800664 -0.2779912 0.10460025 0.25792134
000070 c0 0d 6b 3d 4f 39 97 be 00 c0 a6 bb 70 c0 1a bd
       0.05738616 -0.2953591 -0.005088806 -0.03778118
000080 60 d3 b9 3d
       0.0907352

bias_hh_l2 f4 [33]
000000 90 be 96 3d b4 1c 1f 3e 14 b5 60 3e 50 28 46 3e
       0.07360566 0.15538293 0.21944076 0.19351315
000010 8c e1 b2 bd 40 68 2b 3d e0 fa b9 3c 02 e3 8e be
       -0.08734426 0.041847467 0.022702634 -0.27907568
000020 a2 f5 8b bd 3b 31 2b be 80 ac 1c 3c 0c 63 f4 3d
       -0.0683396 -0.16717999 0.009562612 0.11932954
000030 e8 e8 c9 3d e0 80 57 3c e6 84 c1 bd c0 90 04 bc
       0.098588765 0.013153285 -0.094491765 -0.008091152
000040 48 34 4b be 48 53 3e bd 17 7e 31 be 8e 0d 4b 3e
       -0.19844162 -0.046466142 -0.17333256 0.1982939
000050 a8 c7 3b 3e 98 95 0e bd fc af 12 be e3 0d 82 be
       0.18337882 -0.034810632 -0.14324945 -0.2540122
000060 ba 9e 55 be ad 42 88 be c0 d9 db 3d e0 51 55 bc
       -0.2086133 -0.2661337 0.10734892 -0.013020009
000070 70 bb 4b bd 10 0f 09 be 40 40 89 3d b8 93 98 bd
       -0.0497393 -0.13384652 0.06701708 -0.0745005
000080 3a b7 3f be
       -0.18722239
